{"format": "graph-model", "generatedBy": "2.19.0", "convertedBy": "TensorFlow.js Converter v4.22.0", "signature": {"inputs": {"inputs": {"name": "inputs:0", "dtype": "DT_FLOAT", "tensorShape": {"dim": [{"size": "-1"}, {"size": "128"}, {"size": "128"}, {"size": "3"}]}}}, "outputs": {"output_0": {"name": "Identity:0", "dtype": "DT_FLOAT", "tensorShape": {"dim": [{"size": "-1"}, {"size": "2"}]}}}}, "modelTopology": {"node": [{"name": "StatefulPartitionedCall/functional_4_1/conv2d_17_1/convolution/ReadVariableOp", "op": "Const", "attr": {"value": {"tensor": {"dtype": "DT_FLOAT", "tensorShape": {"dim": [{"size": "1"}, {"size": "1"}, {"size": "1024"}, {"size": "512"}]}}}, "dtype": {"type": "DT_FLOAT"}}}, {"name": "StatefulPartitionedCall/functional_4_1/conv2d_17_1/Squeeze", "op": "Const", "attr": {"value": {"tensor": {"dtype": "DT_FLOAT", "tensorShape": {"dim": [{"size": "512"}]}}}, "dtype": {"type": "DT_FLOAT"}}}, {"name": "StatefulPartitionedCall/functional_4_1/batch_normalization_17_1/batchnorm/mul", "op": "Const", "attr": {"value": {"tensor": {"dtype": "DT_FLOAT", "tensorShape": {"dim": [{"size": "512"}]}}}, "dtype": {"type": "DT_FLOAT"}}}, {"name": "StatefulPartitionedCall/functional_4_1/batch_normalization_17_1/batchnorm/sub", "op": "Const", "attr": {"value": {"tensor": {"dtype": "DT_FLOAT", "tensorShape": {"dim": [{"size": "512"}]}}}, "dtype": {"type": "DT_FLOAT"}}}, {"name": "StatefulPartitionedCall/functional_4_1/conv2d_18_1/convolution/ReadVariableOp", "op": "Const", "attr": {"value": {"tensor": {"dtype": "DT_FLOAT", "tensorShape": {"dim": [{"size": "3"}, {"size": "3"}, {"size": "512"}, {"size": "512"}]}}}, "dtype": {"type": "DT_FLOAT"}}}, {"name": "StatefulPartitionedCall/functional_4_1/conv2d_18_1/Squeeze", "op": "Const", "attr": {"value": {"tensor": {"dtype": "DT_FLOAT", "tensorShape": {"dim": [{"size": "512"}]}}}, "dtype": {"type": "DT_FLOAT"}}}, {"name": "StatefulPartitionedCall/functional_4_1/batch_normalization_18_1/batchnorm/mul", "op": "Const", "attr": {"value": {"tensor": {"dtype": "DT_FLOAT", "tensorShape": {"dim": [{"size": "512"}]}}}, "dtype": {"type": "DT_FLOAT"}}}, {"name": "StatefulPartitionedCall/functional_4_1/batch_normalization_18_1/batchnorm/sub", "op": "Const", "attr": {"value": {"tensor": {"dtype": "DT_FLOAT", "tensorShape": {"dim": [{"size": "512"}]}}}, "dtype": {"type": "DT_FLOAT"}}}, {"name": "StatefulPartitionedCall/functional_4_1/conv2d_19_1/convolution/ReadVariableOp", "op": "Const", "attr": {"value": {"tensor": {"dtype": "DT_FLOAT", "tensorShape": {"dim": [{"size": "1"}, {"size": "1"}, {"size": "512"}, {"size": "2048"}]}}}, "dtype": {"type": "DT_FLOAT"}}}, {"name": "StatefulPartitionedCall/functional_4_1/conv2d_19_1/Squeeze", "op": "Const", "attr": {"value": {"tensor": {"dtype": "DT_FLOAT", "tensorShape": {"dim": [{"size": "2048"}]}}}, "dtype": {"type": "DT_FLOAT"}}}, {"name": "StatefulPartitionedCall/functional_4_1/batch_normalization_19_1/batchnorm/mul", "op": "Const", "attr": {"value": {"tensor": {"dtype": "DT_FLOAT", "tensorShape": {"dim": [{"size": "2048"}]}}}, "dtype": {"type": "DT_FLOAT"}}}, {"name": "StatefulPartitionedCall/functional_4_1/batch_normalization_19_1/batchnorm/sub", "op": "Const", "attr": {"value": {"tensor": {"dtype": "DT_FLOAT", "tensorShape": {"dim": [{"size": "2048"}]}}}, "dtype": {"type": "DT_FLOAT"}}}, {"name": "StatefulPartitionedCall/functional_4_1/batch_normalization_15_1/batchnorm/sub", "op": "Const", "attr": {"value": {"tensor": {"dtype": "DT_FLOAT", "tensorShape": {"dim": [{"size": "1024"}]}}}, "dtype": {"type": "DT_FLOAT"}}}, {"name": "StatefulPartitionedCall/functional_4_1/conv2d_13_1/convolution/ReadVariableOp", "op": "Const", "attr": {"value": {"tensor": {"dtype": "DT_FLOAT", "tensorShape": {"dim": [{"size": "1"}, {"size": "1"}, {"size": "1024"}, {"size": "256"}]}}}, "dtype": {"type": "DT_FLOAT"}}}, {"name": "StatefulPartitionedCall/functional_4_1/conv2d_13_1/Squeeze", "op": "Const", "attr": {"value": {"tensor": {"dtype": "DT_FLOAT", "tensorShape": {"dim": [{"size": "256"}]}}}, "dtype": {"type": "DT_FLOAT"}}}, {"name": "StatefulPartitionedCall/functional_4_1/batch_normalization_13_1/batchnorm/mul", "op": "Const", "attr": {"value": {"tensor": {"dtype": "DT_FLOAT", "tensorShape": {"dim": [{"size": "256"}]}}}, "dtype": {"type": "DT_FLOAT"}}}, {"name": "StatefulPartitionedCall/functional_4_1/batch_normalization_13_1/batchnorm/sub", "op": "Const", "attr": {"value": {"tensor": {"dtype": "DT_FLOAT", "tensorShape": {"dim": [{"size": "256"}]}}}, "dtype": {"type": "DT_FLOAT"}}}, {"name": "StatefulPartitionedCall/functional_4_1/conv2d_14_1/convolution/ReadVariableOp", "op": "Const", "attr": {"value": {"tensor": {"dtype": "DT_FLOAT", "tensorShape": {"dim": [{"size": "3"}, {"size": "3"}, {"size": "256"}, {"size": "256"}]}}}, "dtype": {"type": "DT_FLOAT"}}}, {"name": "StatefulPartitionedCall/functional_4_1/conv2d_14_1/Squeeze", "op": "Const", "attr": {"value": {"tensor": {"dtype": "DT_FLOAT", "tensorShape": {"dim": [{"size": "256"}]}}}, "dtype": {"type": "DT_FLOAT"}}}, {"name": "StatefulPartitionedCall/functional_4_1/batch_normalization_14_1/batchnorm/mul", "op": "Const", "attr": {"value": {"tensor": {"dtype": "DT_FLOAT", "tensorShape": {"dim": [{"size": "256"}]}}}, "dtype": {"type": "DT_FLOAT"}}}, {"name": "StatefulPartitionedCall/functional_4_1/batch_normalization_14_1/batchnorm/sub", "op": "Const", "attr": {"value": {"tensor": {"dtype": "DT_FLOAT", "tensorShape": {"dim": [{"size": "256"}]}}}, "dtype": {"type": "DT_FLOAT"}}}, {"name": "StatefulPartitionedCall/functional_4_1/conv2d_15_1/convolution/ReadVariableOp", "op": "Const", "attr": {"value": {"tensor": {"dtype": "DT_FLOAT", "tensorShape": {"dim": [{"size": "1"}, {"size": "1"}, {"size": "256"}, {"size": "1024"}]}}}, "dtype": {"type": "DT_FLOAT"}}}, {"name": "StatefulPartitionedCall/functional_4_1/conv2d_15_1/Squeeze", "op": "Const", "attr": {"value": {"tensor": {"dtype": "DT_FLOAT", "tensorShape": {"dim": [{"size": "1024"}]}}}, "dtype": {"type": "DT_FLOAT"}}}, {"name": "StatefulPartitionedCall/functional_4_1/batch_normalization_15_1/batchnorm/mul", "op": "Const", "attr": {"value": {"tensor": {"dtype": "DT_FLOAT", "tensorShape": {"dim": [{"size": "1024"}]}}}, "dtype": {"type": "DT_FLOAT"}}}, {"name": "StatefulPartitionedCall/functional_4_1/conv2d_10_1/convolution/ReadVariableOp", "op": "Const", "attr": {"value": {"tensor": {"dtype": "DT_FLOAT", "tensorShape": {"dim": [{"size": "1"}, {"size": "1"}, {"size": "512"}, {"size": "256"}]}}}, "dtype": {"type": "DT_FLOAT"}}}, {"name": "StatefulPartitionedCall/functional_4_1/conv2d_10_1/Squeeze", "op": "Const", "attr": {"value": {"tensor": {"dtype": "DT_FLOAT", "tensorShape": {"dim": [{"size": "256"}]}}}, "dtype": {"type": "DT_FLOAT"}}}, {"name": "StatefulPartitionedCall/functional_4_1/batch_normalization_10_1/batchnorm/mul", "op": "Const", "attr": {"value": {"tensor": {"dtype": "DT_FLOAT", "tensorShape": {"dim": [{"size": "256"}]}}}, "dtype": {"type": "DT_FLOAT"}}}, {"name": "StatefulPartitionedCall/functional_4_1/batch_normalization_10_1/batchnorm/sub", "op": "Const", "attr": {"value": {"tensor": {"dtype": "DT_FLOAT", "tensorShape": {"dim": [{"size": "256"}]}}}, "dtype": {"type": "DT_FLOAT"}}}, {"name": "StatefulPartitionedCall/functional_4_1/conv2d_11_1/convolution/ReadVariableOp", "op": "Const", "attr": {"value": {"tensor": {"dtype": "DT_FLOAT", "tensorShape": {"dim": [{"size": "3"}, {"size": "3"}, {"size": "256"}, {"size": "256"}]}}}, "dtype": {"type": "DT_FLOAT"}}}, {"name": "StatefulPartitionedCall/functional_4_1/conv2d_11_1/Squeeze", "op": "Const", "attr": {"value": {"tensor": {"dtype": "DT_FLOAT", "tensorShape": {"dim": [{"size": "256"}]}}}, "dtype": {"type": "DT_FLOAT"}}}, {"name": "StatefulPartitionedCall/functional_4_1/batch_normalization_11_1/batchnorm/mul", "op": "Const", "attr": {"value": {"tensor": {"dtype": "DT_FLOAT", "tensorShape": {"dim": [{"size": "256"}]}}}, "dtype": {"type": "DT_FLOAT"}}}, {"name": "StatefulPartitionedCall/functional_4_1/batch_normalization_11_1/batchnorm/sub", "op": "Const", "attr": {"value": {"tensor": {"dtype": "DT_FLOAT", "tensorShape": {"dim": [{"size": "256"}]}}}, "dtype": {"type": "DT_FLOAT"}}}, {"name": "StatefulPartitionedCall/functional_4_1/conv2d_12_1/convolution/ReadVariableOp", "op": "Const", "attr": {"value": {"tensor": {"dtype": "DT_FLOAT", "tensorShape": {"dim": [{"size": "1"}, {"size": "1"}, {"size": "256"}, {"size": "1024"}]}}}, "dtype": {"type": "DT_FLOAT"}}}, {"name": "StatefulPartitionedCall/functional_4_1/conv2d_12_1/Squeeze", "op": "Const", "attr": {"value": {"tensor": {"dtype": "DT_FLOAT", "tensorShape": {"dim": [{"size": "1024"}]}}}, "dtype": {"type": "DT_FLOAT"}}}, {"name": "StatefulPartitionedCall/functional_4_1/batch_normalization_12_1/batchnorm/mul", "op": "Const", "attr": {"value": {"tensor": {"dtype": "DT_FLOAT", "tensorShape": {"dim": [{"size": "1024"}]}}}, "dtype": {"type": "DT_FLOAT"}}}, {"name": "StatefulPartitionedCall/functional_4_1/batch_normalization_12_1/batchnorm/sub", "op": "Const", "attr": {"value": {"tensor": {"dtype": "DT_FLOAT", "tensorShape": {"dim": [{"size": "1024"}]}}}, "dtype": {"type": "DT_FLOAT"}}}, {"name": "StatefulPartitionedCall/functional_4_1/conv2d_6_1/convolution/ReadVariableOp", "op": "Const", "attr": {"value": {"tensor": {"dtype": "DT_FLOAT", "tensorShape": {"dim": [{"size": "1"}, {"size": "1"}, {"size": "256"}, {"size": "128"}]}}}, "dtype": {"type": "DT_FLOAT"}}}, {"name": "StatefulPartitionedCall/functional_4_1/conv2d_6_1/Squeeze", "op": "Const", "attr": {"value": {"tensor": {"dtype": "DT_FLOAT", "tensorShape": {"dim": [{"size": "128"}]}}}, "dtype": {"type": "DT_FLOAT"}}}, {"name": "StatefulPartitionedCall/functional_4_1/batch_normalization_6_1/batchnorm/mul", "op": "Const", "attr": {"value": {"tensor": {"dtype": "DT_FLOAT", "tensorShape": {"dim": [{"size": "128"}]}}}, "dtype": {"type": "DT_FLOAT"}}}, {"name": "StatefulPartitionedCall/functional_4_1/batch_normalization_6_1/batchnorm/sub", "op": "Const", "attr": {"value": {"tensor": {"dtype": "DT_FLOAT", "tensorShape": {"dim": [{"size": "128"}]}}}, "dtype": {"type": "DT_FLOAT"}}}, {"name": "StatefulPartitionedCall/functional_4_1/conv2d_7_1/convolution/ReadVariableOp", "op": "Const", "attr": {"value": {"tensor": {"dtype": "DT_FLOAT", "tensorShape": {"dim": [{"size": "3"}, {"size": "3"}, {"size": "128"}, {"size": "128"}]}}}, "dtype": {"type": "DT_FLOAT"}}}, {"name": "StatefulPartitionedCall/functional_4_1/conv2d_7_1/Squeeze", "op": "Const", "attr": {"value": {"tensor": {"dtype": "DT_FLOAT", "tensorShape": {"dim": [{"size": "128"}]}}}, "dtype": {"type": "DT_FLOAT"}}}, {"name": "StatefulPartitionedCall/functional_4_1/batch_normalization_7_1/batchnorm/mul", "op": "Const", "attr": {"value": {"tensor": {"dtype": "DT_FLOAT", "tensorShape": {"dim": [{"size": "128"}]}}}, "dtype": {"type": "DT_FLOAT"}}}, {"name": "StatefulPartitionedCall/functional_4_1/batch_normalization_7_1/batchnorm/sub", "op": "Const", "attr": {"value": {"tensor": {"dtype": "DT_FLOAT", "tensorShape": {"dim": [{"size": "128"}]}}}, "dtype": {"type": "DT_FLOAT"}}}, {"name": "StatefulPartitionedCall/functional_4_1/conv2d_8_1/convolution/ReadVariableOp", "op": "Const", "attr": {"value": {"tensor": {"dtype": "DT_FLOAT", "tensorShape": {"dim": [{"size": "1"}, {"size": "1"}, {"size": "128"}, {"size": "512"}]}}}, "dtype": {"type": "DT_FLOAT"}}}, {"name": "StatefulPartitionedCall/functional_4_1/conv2d_8_1/Squeeze", "op": "Const", "attr": {"value": {"tensor": {"dtype": "DT_FLOAT", "tensorShape": {"dim": [{"size": "512"}]}}}, "dtype": {"type": "DT_FLOAT"}}}, {"name": "StatefulPartitionedCall/functional_4_1/batch_normalization_8_1/batchnorm/mul", "op": "Const", "attr": {"value": {"tensor": {"dtype": "DT_FLOAT", "tensorShape": {"dim": [{"size": "512"}]}}}, "dtype": {"type": "DT_FLOAT"}}}, {"name": "StatefulPartitionedCall/functional_4_1/batch_normalization_8_1/batchnorm/sub", "op": "Const", "attr": {"value": {"tensor": {"dtype": "DT_FLOAT", "tensorShape": {"dim": [{"size": "512"}]}}}, "dtype": {"type": "DT_FLOAT"}}}, {"name": "StatefulPartitionedCall/functional_4_1/add_1/ArithmeticOptimizer/AddOpsRewrite_Leaf_0_Add", "op": "Const", "attr": {"value": {"tensor": {"dtype": "DT_FLOAT", "tensorShape": {"dim": [{"size": "256"}]}}}, "dtype": {"type": "DT_FLOAT"}}}, {"name": "StatefulPartitionedCall/functional_4_1/conv2d_2_1/convolution/ReadVariableOp", "op": "Const", "attr": {"value": {"tensor": {"dtype": "DT_FLOAT", "tensorShape": {"dim": [{"size": "1"}, {"size": "1"}, {"size": "64"}, {"size": "64"}]}}}, "dtype": {"type": "DT_FLOAT"}}}, {"name": "StatefulPartitionedCall/functional_4_1/conv2d_2_1/Squeeze", "op": "Const", "attr": {"value": {"tensor": {"dtype": "DT_FLOAT", "tensorShape": {"dim": [{"size": "64"}]}}}, "dtype": {"type": "DT_FLOAT"}}}, {"name": "StatefulPartitionedCall/functional_4_1/batch_normalization_2_1/batchnorm/mul", "op": "Const", "attr": {"value": {"tensor": {"dtype": "DT_FLOAT", "tensorShape": {"dim": [{"size": "64"}]}}}, "dtype": {"type": "DT_FLOAT"}}}, {"name": "StatefulPartitionedCall/functional_4_1/batch_normalization_2_1/batchnorm/sub", "op": "Const", "attr": {"value": {"tensor": {"dtype": "DT_FLOAT", "tensorShape": {"dim": [{"size": "64"}]}}}, "dtype": {"type": "DT_FLOAT"}}}, {"name": "StatefulPartitionedCall/functional_4_1/conv2d_3_1/convolution/ReadVariableOp", "op": "Const", "attr": {"value": {"tensor": {"dtype": "DT_FLOAT", "tensorShape": {"dim": [{"size": "3"}, {"size": "3"}, {"size": "64"}, {"size": "64"}]}}}, "dtype": {"type": "DT_FLOAT"}}}, {"name": "StatefulPartitionedCall/functional_4_1/conv2d_3_1/Squeeze", "op": "Const", "attr": {"value": {"tensor": {"dtype": "DT_FLOAT", "tensorShape": {"dim": [{"size": "64"}]}}}, "dtype": {"type": "DT_FLOAT"}}}, {"name": "StatefulPartitionedCall/functional_4_1/batch_normalization_3_1/batchnorm/mul", "op": "Const", "attr": {"value": {"tensor": {"dtype": "DT_FLOAT", "tensorShape": {"dim": [{"size": "64"}]}}}, "dtype": {"type": "DT_FLOAT"}}}, {"name": "StatefulPartitionedCall/functional_4_1/batch_normalization_3_1/batchnorm/sub", "op": "Const", "attr": {"value": {"tensor": {"dtype": "DT_FLOAT", "tensorShape": {"dim": [{"size": "64"}]}}}, "dtype": {"type": "DT_FLOAT"}}}, {"name": "StatefulPartitionedCall/functional_4_1/conv2d_4_1/convolution/ReadVariableOp", "op": "Const", "attr": {"value": {"tensor": {"dtype": "DT_FLOAT", "tensorShape": {"dim": [{"size": "1"}, {"size": "1"}, {"size": "64"}, {"size": "256"}]}}}, "dtype": {"type": "DT_FLOAT"}}}, {"name": "StatefulPartitionedCall/functional_4_1/conv2d_4_1/Squeeze", "op": "Const", "attr": {"value": {"tensor": {"dtype": "DT_FLOAT", "tensorShape": {"dim": [{"size": "256"}]}}}, "dtype": {"type": "DT_FLOAT"}}}, {"name": "StatefulPartitionedCall/functional_4_1/batch_normalization_4_1/batchnorm/mul", "op": "Const", "attr": {"value": {"tensor": {"dtype": "DT_FLOAT", "tensorShape": {"dim": [{"size": "256"}]}}}, "dtype": {"type": "DT_FLOAT"}}}, {"name": "StatefulPartitionedCall/functional_4_1/conv2d_1/convolution/ReadVariableOp", "op": "Const", "attr": {"value": {"tensor": {"dtype": "DT_FLOAT", "tensorShape": {"dim": [{"size": "7"}, {"size": "7"}, {"size": "3"}, {"size": "64"}]}}}, "dtype": {"type": "DT_FLOAT"}}}, {"name": "StatefulPartitionedCall/functional_4_1/conv2d_1/Squeeze", "op": "Const", "attr": {"value": {"tensor": {"dtype": "DT_FLOAT", "tensorShape": {"dim": [{"size": "64"}]}}}, "dtype": {"type": "DT_FLOAT"}}}, {"name": "StatefulPartitionedCall/functional_4_1/batch_normalization_1/batchnorm/mul", "op": "Const", "attr": {"value": {"tensor": {"dtype": "DT_FLOAT", "tensorShape": {"dim": [{"size": "64"}]}}}, "dtype": {"type": "DT_FLOAT"}}}, {"name": "StatefulPartitionedCall/functional_4_1/batch_normalization_1/batchnorm/sub", "op": "Const", "attr": {"value": {"tensor": {"dtype": "DT_FLOAT", "tensorShape": {"dim": [{"size": "64"}]}}}, "dtype": {"type": "DT_FLOAT"}}}, {"name": "StatefulPartitionedCall/functional_4_1/sequential_1/conv2d_1_1/convolution/ReadVariableOp", "op": "Const", "attr": {"value": {"tensor": {"dtype": "DT_FLOAT", "tensorShape": {"dim": [{"size": "1"}, {"size": "1"}, {"size": "64"}, {"size": "256"}]}}}, "dtype": {"type": "DT_FLOAT"}}}, {"name": "StatefulPartitionedCall/functional_4_1/sequential_1/conv2d_1_1/Squeeze", "op": "Const", "attr": {"value": {"tensor": {"dtype": "DT_FLOAT", "tensorShape": {"dim": [{"size": "256"}]}}}, "dtype": {"type": "DT_FLOAT"}}}, {"name": "StatefulPartitionedCall/functional_4_1/sequential_1/batch_normalization_1_1/batchnorm/mul", "op": "Const", "attr": {"value": {"tensor": {"dtype": "DT_FLOAT", "tensorShape": {"dim": [{"size": "256"}]}}}, "dtype": {"type": "DT_FLOAT"}}}, {"name": "StatefulPartitionedCall/functional_4_1/sequential_1_2/conv2d_5_1/convolution/ReadVariableOp", "op": "Const", "attr": {"value": {"tensor": {"dtype": "DT_FLOAT", "tensorShape": {"dim": [{"size": "1"}, {"size": "1"}, {"size": "256"}, {"size": "512"}]}}}, "dtype": {"type": "DT_FLOAT"}}}, {"name": "StatefulPartitionedCall/functional_4_1/sequential_1_2/conv2d_5_1/Squeeze", "op": "Const", "attr": {"value": {"tensor": {"dtype": "DT_FLOAT", "tensorShape": {"dim": [{"size": "512"}]}}}, "dtype": {"type": "DT_FLOAT"}}}, {"name": "StatefulPartitionedCall/functional_4_1/sequential_1_2/batch_normalization_5_1/batchnorm/mul", "op": "Const", "attr": {"value": {"tensor": {"dtype": "DT_FLOAT", "tensorShape": {"dim": [{"size": "512"}]}}}, "dtype": {"type": "DT_FLOAT"}}}, {"name": "StatefulPartitionedCall/functional_4_1/sequential_1_2/batch_normalization_5_1/batchnorm/sub", "op": "Const", "attr": {"value": {"tensor": {"dtype": "DT_FLOAT", "tensorShape": {"dim": [{"size": "512"}]}}}, "dtype": {"type": "DT_FLOAT"}}}, {"name": "StatefulPartitionedCall/functional_4_1/sequential_2_1/conv2d_9_1/convolution/ReadVariableOp", "op": "Const", "attr": {"value": {"tensor": {"dtype": "DT_FLOAT", "tensorShape": {"dim": [{"size": "1"}, {"size": "1"}, {"size": "512"}, {"size": "1024"}]}}}, "dtype": {"type": "DT_FLOAT"}}}, {"name": "StatefulPartitionedCall/functional_4_1/sequential_2_1/conv2d_9_1/Squeeze", "op": "Const", "attr": {"value": {"tensor": {"dtype": "DT_FLOAT", "tensorShape": {"dim": [{"size": "1024"}]}}}, "dtype": {"type": "DT_FLOAT"}}}, {"name": "StatefulPartitionedCall/functional_4_1/sequential_2_1/batch_normalization_9_1/batchnorm/mul", "op": "Const", "attr": {"value": {"tensor": {"dtype": "DT_FLOAT", "tensorShape": {"dim": [{"size": "1024"}]}}}, "dtype": {"type": "DT_FLOAT"}}}, {"name": "StatefulPartitionedCall/functional_4_1/sequential_2_1/batch_normalization_9_1/batchnorm/sub", "op": "Const", "attr": {"value": {"tensor": {"dtype": "DT_FLOAT", "tensorShape": {"dim": [{"size": "1024"}]}}}, "dtype": {"type": "DT_FLOAT"}}}, {"name": "StatefulPartitionedCall/functional_4_1/sequential_3_1/conv2d_16_1/convolution/ReadVariableOp", "op": "Const", "attr": {"value": {"tensor": {"dtype": "DT_FLOAT", "tensorShape": {"dim": [{"size": "1"}, {"size": "1"}, {"size": "1024"}, {"size": "2048"}]}}}, "dtype": {"type": "DT_FLOAT"}}}, {"name": "StatefulPartitionedCall/functional_4_1/sequential_3_1/conv2d_16_1/Squeeze", "op": "Const", "attr": {"value": {"tensor": {"dtype": "DT_FLOAT", "tensorShape": {"dim": [{"size": "2048"}]}}}, "dtype": {"type": "DT_FLOAT"}}}, {"name": "StatefulPartitionedCall/functional_4_1/sequential_3_1/batch_normalization_16_1/batchnorm/mul", "op": "Const", "attr": {"value": {"tensor": {"dtype": "DT_FLOAT", "tensorShape": {"dim": [{"size": "2048"}]}}}, "dtype": {"type": "DT_FLOAT"}}}, {"name": "StatefulPartitionedCall/functional_4_1/sequential_3_1/batch_normalization_16_1/batchnorm/sub", "op": "Const", "attr": {"value": {"tensor": {"dtype": "DT_FLOAT", "tensorShape": {"dim": [{"size": "2048"}]}}}, "dtype": {"type": "DT_FLOAT"}}}, {"name": "StatefulPartitionedCall/functional_4_1/global_average_pooling2d_1/Mean/reduction_indices", "op": "Const", "attr": {"value": {"tensor": {"dtype": "DT_INT32", "tensorShape": {"dim": [{"size": "2"}]}}}, "dtype": {"type": "DT_INT32"}}}, {"name": "StatefulPartitionedCall/functional_4_1/dense_1/Cast/ReadVariableOp", "op": "Const", "attr": {"value": {"tensor": {"dtype": "DT_FLOAT", "tensorShape": {"dim": [{"size": "2048"}, {"size": "2"}]}}}, "dtype": {"type": "DT_FLOAT"}}}, {"name": "StatefulPartitionedCall/functional_4_1/dense_1/BiasAdd/ReadVariableOp", "op": "Const", "attr": {"value": {"tensor": {"dtype": "DT_FLOAT", "tensorShape": {"dim": [{"size": "2"}]}}}, "dtype": {"type": "DT_FLOAT"}}}, {"name": "inputs", "op": "Placeholder", "attr": {"shape": {"shape": {"dim": [{"size": "-1"}, {"size": "128"}, {"size": "128"}, {"size": "3"}]}}, "dtype": {"type": "DT_FLOAT"}}}, {"name": "StatefulPartitionedCall/functional_4_1/conv2d_1/BiasAdd", "op": "_FusedConv2D", "input": ["inputs", "StatefulPartitionedCall/functional_4_1/conv2d_1/convolution/ReadVariableOp", "StatefulPartitionedCall/functional_4_1/conv2d_1/Squeeze"], "device": "/device:CPU:0", "attr": {"num_host_args": {"i": "0"}, "data_format": {"s": "TkhXQw=="}, "filter_format": {"s": "SFdJTw=="}, "strides": {"list": {"i": ["1", "2", "2", "1"]}}, "num_args": {"i": "1"}, "fused_ops": {"list": {"s": ["Qmlhc0FkZA=="]}}, "TArgs": {"list": {"type": ["DT_FLOAT"]}}, "padding": {"s": "U0FNRQ=="}, "use_cudnn_on_gpu": {"b": true}, "leakyrelu_alpha": {"f": 0.2}, "epsilon": {"f": 0.0}, "T": {"type": "DT_FLOAT"}, "explicit_paddings": {"list": {}}, "dilations": {"list": {"i": ["1", "1", "1", "1"]}}}}, {"name": "StatefulPartitionedCall/functional_4_1/batch_normalization_1/batchnorm/mul_1", "op": "Mul", "input": ["StatefulPartitionedCall/functional_4_1/conv2d_1/BiasAdd", "StatefulPartitionedCall/functional_4_1/batch_normalization_1/batchnorm/mul"], "attr": {"T": {"type": "DT_FLOAT"}}}, {"name": "StatefulPartitionedCall/functional_4_1/batch_normalization_1/batchnorm/add_1", "op": "AddV2", "input": ["StatefulPartitionedCall/functional_4_1/batch_normalization_1/batchnorm/mul_1", "StatefulPartitionedCall/functional_4_1/batch_normalization_1/batchnorm/sub"], "attr": {"T": {"type": "DT_FLOAT"}}}, {"name": "StatefulPartitionedCall/functional_4_1/max_pooling2d_1/MaxPool2d", "op": "MaxPool", "input": ["StatefulPartitionedCall/functional_4_1/batch_normalization_1/batchnorm/add_1"], "attr": {"ksize": {"list": {"i": ["1", "3", "3", "1"]}}, "data_format": {"s": "TkhXQw=="}, "T": {"type": "DT_FLOAT"}, "explicit_paddings": {"list": {}}, "padding": {"s": "U0FNRQ=="}, "strides": {"list": {"i": ["1", "2", "2", "1"]}}}}, {"name": "StatefulPartitionedCall/functional_4_1/re_lu_1/Relu", "op": "Relu", "input": ["StatefulPartitionedCall/functional_4_1/max_pooling2d_1/MaxPool2d"], "attr": {"T": {"type": "DT_FLOAT"}}}, {"name": "StatefulPartitionedCall/functional_4_1/conv2d_2_1/BiasAdd", "op": "_FusedConv2D", "input": ["StatefulPartitionedCall/functional_4_1/re_lu_1/Relu", "StatefulPartitionedCall/functional_4_1/conv2d_2_1/convolution/ReadVariableOp", "StatefulPartitionedCall/functional_4_1/conv2d_2_1/Squeeze"], "device": "/device:CPU:0", "attr": {"num_host_args": {"i": "0"}, "data_format": {"s": "TkhXQw=="}, "filter_format": {"s": "SFdJTw=="}, "fused_ops": {"list": {"s": ["Qmlhc0FkZA=="]}}, "num_args": {"i": "1"}, "strides": {"list": {"i": ["1", "1", "1", "1"]}}, "TArgs": {"list": {"type": ["DT_FLOAT"]}}, "padding": {"s": "U0FNRQ=="}, "use_cudnn_on_gpu": {"b": true}, "leakyrelu_alpha": {"f": 0.2}, "epsilon": {"f": 0.0}, "T": {"type": "DT_FLOAT"}, "explicit_paddings": {"list": {}}, "dilations": {"list": {"i": ["1", "1", "1", "1"]}}}}, {"name": "StatefulPartitionedCall/functional_4_1/sequential_1/conv2d_1_1/BiasAdd", "op": "_FusedConv2D", "input": ["StatefulPartitionedCall/functional_4_1/re_lu_1/Relu", "StatefulPartitionedCall/functional_4_1/sequential_1/conv2d_1_1/convolution/ReadVariableOp", "StatefulPartitionedCall/functional_4_1/sequential_1/conv2d_1_1/Squeeze"], "device": "/device:CPU:0", "attr": {"num_host_args": {"i": "0"}, "data_format": {"s": "TkhXQw=="}, "filter_format": {"s": "SFdJTw=="}, "fused_ops": {"list": {"s": ["Qmlhc0FkZA=="]}}, "num_args": {"i": "1"}, "strides": {"list": {"i": ["1", "1", "1", "1"]}}, "TArgs": {"list": {"type": ["DT_FLOAT"]}}, "padding": {"s": "U0FNRQ=="}, "use_cudnn_on_gpu": {"b": true}, "leakyrelu_alpha": {"f": 0.2}, "epsilon": {"f": 0.0}, "T": {"type": "DT_FLOAT"}, "explicit_paddings": {"list": {}}, "dilations": {"list": {"i": ["1", "1", "1", "1"]}}}}, {"name": "StatefulPartitionedCall/functional_4_1/batch_normalization_2_1/batchnorm/mul_1", "op": "Mul", "input": ["StatefulPartitionedCall/functional_4_1/conv2d_2_1/BiasAdd", "StatefulPartitionedCall/functional_4_1/batch_normalization_2_1/batchnorm/mul"], "attr": {"T": {"type": "DT_FLOAT"}}}, {"name": "StatefulPartitionedCall/functional_4_1/sequential_1/batch_normalization_1_1/batchnorm/mul_1", "op": "Mul", "input": ["StatefulPartitionedCall/functional_4_1/sequential_1/conv2d_1_1/BiasAdd", "StatefulPartitionedCall/functional_4_1/sequential_1/batch_normalization_1_1/batchnorm/mul"], "attr": {"T": {"type": "DT_FLOAT"}}}, {"name": "StatefulPartitionedCall/functional_4_1/batch_normalization_2_1/batchnorm/add_1", "op": "AddV2", "input": ["StatefulPartitionedCall/functional_4_1/batch_normalization_2_1/batchnorm/mul_1", "StatefulPartitionedCall/functional_4_1/batch_normalization_2_1/batchnorm/sub"], "attr": {"T": {"type": "DT_FLOAT"}}}, {"name": "StatefulPartitionedCall/functional_4_1/re_lu_1_2/Relu", "op": "Relu", "input": ["StatefulPartitionedCall/functional_4_1/batch_normalization_2_1/batchnorm/add_1"], "attr": {"T": {"type": "DT_FLOAT"}}}, {"name": "StatefulPartitionedCall/functional_4_1/conv2d_3_1/BiasAdd", "op": "_FusedConv2D", "input": ["StatefulPartitionedCall/functional_4_1/re_lu_1_2/Relu", "StatefulPartitionedCall/functional_4_1/conv2d_3_1/convolution/ReadVariableOp", "StatefulPartitionedCall/functional_4_1/conv2d_3_1/Squeeze"], "device": "/device:CPU:0", "attr": {"num_host_args": {"i": "0"}, "data_format": {"s": "TkhXQw=="}, "filter_format": {"s": "SFdJTw=="}, "fused_ops": {"list": {"s": ["Qmlhc0FkZA=="]}}, "num_args": {"i": "1"}, "strides": {"list": {"i": ["1", "1", "1", "1"]}}, "TArgs": {"list": {"type": ["DT_FLOAT"]}}, "padding": {"s": "U0FNRQ=="}, "use_cudnn_on_gpu": {"b": true}, "leakyrelu_alpha": {"f": 0.2}, "epsilon": {"f": 0.0}, "T": {"type": "DT_FLOAT"}, "explicit_paddings": {"list": {}}, "dilations": {"list": {"i": ["1", "1", "1", "1"]}}}}, {"name": "StatefulPartitionedCall/functional_4_1/batch_normalization_3_1/batchnorm/mul_1", "op": "Mul", "input": ["StatefulPartitionedCall/functional_4_1/conv2d_3_1/BiasAdd", "StatefulPartitionedCall/functional_4_1/batch_normalization_3_1/batchnorm/mul"], "attr": {"T": {"type": "DT_FLOAT"}}}, {"name": "StatefulPartitionedCall/functional_4_1/batch_normalization_3_1/batchnorm/add_1", "op": "AddV2", "input": ["StatefulPartitionedCall/functional_4_1/batch_normalization_3_1/batchnorm/mul_1", "StatefulPartitionedCall/functional_4_1/batch_normalization_3_1/batchnorm/sub"], "attr": {"T": {"type": "DT_FLOAT"}}}, {"name": "StatefulPartitionedCall/functional_4_1/re_lu_2_1/Relu", "op": "Relu", "input": ["StatefulPartitionedCall/functional_4_1/batch_normalization_3_1/batchnorm/add_1"], "attr": {"T": {"type": "DT_FLOAT"}}}, {"name": "StatefulPartitionedCall/functional_4_1/conv2d_4_1/BiasAdd", "op": "_FusedConv2D", "input": ["StatefulPartitionedCall/functional_4_1/re_lu_2_1/Relu", "StatefulPartitionedCall/functional_4_1/conv2d_4_1/convolution/ReadVariableOp", "StatefulPartitionedCall/functional_4_1/conv2d_4_1/Squeeze"], "device": "/device:CPU:0", "attr": {"num_host_args": {"i": "0"}, "data_format": {"s": "TkhXQw=="}, "filter_format": {"s": "SFdJTw=="}, "strides": {"list": {"i": ["1", "1", "1", "1"]}}, "num_args": {"i": "1"}, "fused_ops": {"list": {"s": ["Qmlhc0FkZA=="]}}, "TArgs": {"list": {"type": ["DT_FLOAT"]}}, "padding": {"s": "U0FNRQ=="}, "use_cudnn_on_gpu": {"b": true}, "leakyrelu_alpha": {"f": 0.2}, "epsilon": {"f": 0.0}, "T": {"type": "DT_FLOAT"}, "explicit_paddings": {"list": {}}, "dilations": {"list": {"i": ["1", "1", "1", "1"]}}}}, {"name": "StatefulPartitionedCall/functional_4_1/batch_normalization_4_1/batchnorm/mul_1", "op": "Mul", "input": ["StatefulPartitionedCall/functional_4_1/conv2d_4_1/BiasAdd", "StatefulPartitionedCall/functional_4_1/batch_normalization_4_1/batchnorm/mul"], "attr": {"T": {"type": "DT_FLOAT"}}}, {"name": "StatefulPartitionedCall/functional_4_1/add_1/ArithmeticOptimizer/AddOpsRewrite_Leaf_1_Add", "op": "AddN", "input": ["StatefulPartitionedCall/functional_4_1/batch_normalization_4_1/batchnorm/mul_1", "StatefulPartitionedCall/functional_4_1/sequential_1/batch_normalization_1_1/batchnorm/mul_1"], "attr": {"N": {"i": "2"}, "T": {"type": "DT_FLOAT"}, "_grappler_ArithmeticOptimizer_AddOpsRewriteStage": {"b": true}}}, {"name": "StatefulPartitionedCall/functional_4_1/add_1/ArithmeticOptimizer/AddOpsRewrite_Add", "op": "AddV2", "input": ["StatefulPartitionedCall/functional_4_1/add_1/ArithmeticOptimizer/AddOpsRewrite_Leaf_0_Add", "StatefulPartitionedCall/functional_4_1/add_1/ArithmeticOptimizer/AddOpsRewrite_Leaf_1_Add"], "attr": {"T": {"type": "DT_FLOAT"}, "_grappler_ArithmeticOptimizer_AddOpsRewriteStage": {"b": true}}}, {"name": "StatefulPartitionedCall/functional_4_1/re_lu_3_1/Relu", "op": "Relu", "input": ["StatefulPartitionedCall/functional_4_1/add_1/ArithmeticOptimizer/AddOpsRewrite_Add"], "attr": {"T": {"type": "DT_FLOAT"}}}, {"name": "StatefulPartitionedCall/functional_4_1/conv2d_6_1/BiasAdd", "op": "_FusedConv2D", "input": ["StatefulPartitionedCall/functional_4_1/re_lu_3_1/Relu", "StatefulPartitionedCall/functional_4_1/conv2d_6_1/convolution/ReadVariableOp", "StatefulPartitionedCall/functional_4_1/conv2d_6_1/Squeeze"], "device": "/device:CPU:0", "attr": {"num_host_args": {"i": "0"}, "data_format": {"s": "TkhXQw=="}, "filter_format": {"s": "SFdJTw=="}, "strides": {"list": {"i": ["1", "1", "1", "1"]}}, "num_args": {"i": "1"}, "fused_ops": {"list": {"s": ["Qmlhc0FkZA=="]}}, "TArgs": {"list": {"type": ["DT_FLOAT"]}}, "padding": {"s": "U0FNRQ=="}, "use_cudnn_on_gpu": {"b": true}, "leakyrelu_alpha": {"f": 0.2}, "epsilon": {"f": 0.0}, "T": {"type": "DT_FLOAT"}, "explicit_paddings": {"list": {}}, "dilations": {"list": {"i": ["1", "1", "1", "1"]}}}}, {"name": "StatefulPartitionedCall/functional_4_1/sequential_1_2/conv2d_5_1/BiasAdd", "op": "_FusedConv2D", "input": ["StatefulPartitionedCall/functional_4_1/re_lu_3_1/Relu", "StatefulPartitionedCall/functional_4_1/sequential_1_2/conv2d_5_1/convolution/ReadVariableOp", "StatefulPartitionedCall/functional_4_1/sequential_1_2/conv2d_5_1/Squeeze"], "device": "/device:CPU:0", "attr": {"num_host_args": {"i": "0"}, "data_format": {"s": "TkhXQw=="}, "filter_format": {"s": "SFdJTw=="}, "strides": {"list": {"i": ["1", "2", "2", "1"]}}, "num_args": {"i": "1"}, "fused_ops": {"list": {"s": ["Qmlhc0FkZA=="]}}, "TArgs": {"list": {"type": ["DT_FLOAT"]}}, "padding": {"s": "U0FNRQ=="}, "use_cudnn_on_gpu": {"b": true}, "leakyrelu_alpha": {"f": 0.2}, "epsilon": {"f": 0.0}, "T": {"type": "DT_FLOAT"}, "explicit_paddings": {"list": {}}, "dilations": {"list": {"i": ["1", "1", "1", "1"]}}}}, {"name": "StatefulPartitionedCall/functional_4_1/batch_normalization_6_1/batchnorm/mul_1", "op": "Mul", "input": ["StatefulPartitionedCall/functional_4_1/conv2d_6_1/BiasAdd", "StatefulPartitionedCall/functional_4_1/batch_normalization_6_1/batchnorm/mul"], "attr": {"T": {"type": "DT_FLOAT"}}}, {"name": "StatefulPartitionedCall/functional_4_1/sequential_1_2/batch_normalization_5_1/batchnorm/mul_1", "op": "Mul", "input": ["StatefulPartitionedCall/functional_4_1/sequential_1_2/conv2d_5_1/BiasAdd", "StatefulPartitionedCall/functional_4_1/sequential_1_2/batch_normalization_5_1/batchnorm/mul"], "attr": {"T": {"type": "DT_FLOAT"}}}, {"name": "StatefulPartitionedCall/functional_4_1/batch_normalization_6_1/batchnorm/add_1", "op": "AddV2", "input": ["StatefulPartitionedCall/functional_4_1/batch_normalization_6_1/batchnorm/mul_1", "StatefulPartitionedCall/functional_4_1/batch_normalization_6_1/batchnorm/sub"], "attr": {"T": {"type": "DT_FLOAT"}}}, {"name": "StatefulPartitionedCall/functional_4_1/sequential_1_2/batch_normalization_5_1/batchnorm/add_1", "op": "AddV2", "input": ["StatefulPartitionedCall/functional_4_1/sequential_1_2/batch_normalization_5_1/batchnorm/mul_1", "StatefulPartitionedCall/functional_4_1/sequential_1_2/batch_normalization_5_1/batchnorm/sub"], "attr": {"T": {"type": "DT_FLOAT"}}}, {"name": "StatefulPartitionedCall/functional_4_1/re_lu_4_1/Relu", "op": "Relu", "input": ["StatefulPartitionedCall/functional_4_1/batch_normalization_6_1/batchnorm/add_1"], "attr": {"T": {"type": "DT_FLOAT"}}}, {"name": "StatefulPartitionedCall/functional_4_1/conv2d_7_1/BiasAdd", "op": "_FusedConv2D", "input": ["StatefulPartitionedCall/functional_4_1/re_lu_4_1/Relu", "StatefulPartitionedCall/functional_4_1/conv2d_7_1/convolution/ReadVariableOp", "StatefulPartitionedCall/functional_4_1/conv2d_7_1/Squeeze"], "device": "/device:CPU:0", "attr": {"num_host_args": {"i": "0"}, "data_format": {"s": "TkhXQw=="}, "filter_format": {"s": "SFdJTw=="}, "fused_ops": {"list": {"s": ["Qmlhc0FkZA=="]}}, "num_args": {"i": "1"}, "strides": {"list": {"i": ["1", "2", "2", "1"]}}, "TArgs": {"list": {"type": ["DT_FLOAT"]}}, "padding": {"s": "U0FNRQ=="}, "use_cudnn_on_gpu": {"b": true}, "leakyrelu_alpha": {"f": 0.2}, "epsilon": {"f": 0.0}, "T": {"type": "DT_FLOAT"}, "explicit_paddings": {"list": {}}, "dilations": {"list": {"i": ["1", "1", "1", "1"]}}}}, {"name": "StatefulPartitionedCall/functional_4_1/batch_normalization_7_1/batchnorm/mul_1", "op": "Mul", "input": ["StatefulPartitionedCall/functional_4_1/conv2d_7_1/BiasAdd", "StatefulPartitionedCall/functional_4_1/batch_normalization_7_1/batchnorm/mul"], "attr": {"T": {"type": "DT_FLOAT"}}}, {"name": "StatefulPartitionedCall/functional_4_1/batch_normalization_7_1/batchnorm/add_1", "op": "AddV2", "input": ["StatefulPartitionedCall/functional_4_1/batch_normalization_7_1/batchnorm/mul_1", "StatefulPartitionedCall/functional_4_1/batch_normalization_7_1/batchnorm/sub"], "attr": {"T": {"type": "DT_FLOAT"}}}, {"name": "StatefulPartitionedCall/functional_4_1/re_lu_5_1/Relu", "op": "Relu", "input": ["StatefulPartitionedCall/functional_4_1/batch_normalization_7_1/batchnorm/add_1"], "attr": {"T": {"type": "DT_FLOAT"}}}, {"name": "StatefulPartitionedCall/functional_4_1/conv2d_8_1/BiasAdd", "op": "_FusedConv2D", "input": ["StatefulPartitionedCall/functional_4_1/re_lu_5_1/Relu", "StatefulPartitionedCall/functional_4_1/conv2d_8_1/convolution/ReadVariableOp", "StatefulPartitionedCall/functional_4_1/conv2d_8_1/Squeeze"], "device": "/device:CPU:0", "attr": {"num_host_args": {"i": "0"}, "data_format": {"s": "TkhXQw=="}, "filter_format": {"s": "SFdJTw=="}, "strides": {"list": {"i": ["1", "1", "1", "1"]}}, "num_args": {"i": "1"}, "fused_ops": {"list": {"s": ["Qmlhc0FkZA=="]}}, "TArgs": {"list": {"type": ["DT_FLOAT"]}}, "padding": {"s": "U0FNRQ=="}, "use_cudnn_on_gpu": {"b": true}, "leakyrelu_alpha": {"f": 0.2}, "epsilon": {"f": 0.0}, "T": {"type": "DT_FLOAT"}, "explicit_paddings": {"list": {}}, "dilations": {"list": {"i": ["1", "1", "1", "1"]}}}}, {"name": "StatefulPartitionedCall/functional_4_1/batch_normalization_8_1/batchnorm/mul_1", "op": "Mul", "input": ["StatefulPartitionedCall/functional_4_1/conv2d_8_1/BiasAdd", "StatefulPartitionedCall/functional_4_1/batch_normalization_8_1/batchnorm/mul"], "attr": {"T": {"type": "DT_FLOAT"}}}, {"name": "StatefulPartitionedCall/functional_4_1/batch_normalization_8_1/batchnorm/add_1", "op": "AddV2", "input": ["StatefulPartitionedCall/functional_4_1/batch_normalization_8_1/batchnorm/mul_1", "StatefulPartitionedCall/functional_4_1/batch_normalization_8_1/batchnorm/sub"], "attr": {"T": {"type": "DT_FLOAT"}}}, {"name": "StatefulPartitionedCall/functional_4_1/add_1_2/Add", "op": "AddV2", "input": ["StatefulPartitionedCall/functional_4_1/batch_normalization_8_1/batchnorm/add_1", "StatefulPartitionedCall/functional_4_1/sequential_1_2/batch_normalization_5_1/batchnorm/add_1"], "attr": {"T": {"type": "DT_FLOAT"}}}, {"name": "StatefulPartitionedCall/functional_4_1/re_lu_6_1/Relu", "op": "Relu", "input": ["StatefulPartitionedCall/functional_4_1/add_1_2/Add"], "attr": {"T": {"type": "DT_FLOAT"}}}, {"name": "StatefulPartitionedCall/functional_4_1/conv2d_10_1/BiasAdd", "op": "_FusedConv2D", "input": ["StatefulPartitionedCall/functional_4_1/re_lu_6_1/Relu", "StatefulPartitionedCall/functional_4_1/conv2d_10_1/convolution/ReadVariableOp", "StatefulPartitionedCall/functional_4_1/conv2d_10_1/Squeeze"], "device": "/device:CPU:0", "attr": {"num_host_args": {"i": "0"}, "data_format": {"s": "TkhXQw=="}, "filter_format": {"s": "SFdJTw=="}, "strides": {"list": {"i": ["1", "1", "1", "1"]}}, "num_args": {"i": "1"}, "fused_ops": {"list": {"s": ["Qmlhc0FkZA=="]}}, "TArgs": {"list": {"type": ["DT_FLOAT"]}}, "padding": {"s": "U0FNRQ=="}, "use_cudnn_on_gpu": {"b": true}, "leakyrelu_alpha": {"f": 0.2}, "epsilon": {"f": 0.0}, "T": {"type": "DT_FLOAT"}, "explicit_paddings": {"list": {}}, "dilations": {"list": {"i": ["1", "1", "1", "1"]}}}}, {"name": "StatefulPartitionedCall/functional_4_1/sequential_2_1/conv2d_9_1/BiasAdd", "op": "_FusedConv2D", "input": ["StatefulPartitionedCall/functional_4_1/re_lu_6_1/Relu", "StatefulPartitionedCall/functional_4_1/sequential_2_1/conv2d_9_1/convolution/ReadVariableOp", "StatefulPartitionedCall/functional_4_1/sequential_2_1/conv2d_9_1/Squeeze"], "device": "/device:CPU:0", "attr": {"num_host_args": {"i": "0"}, "data_format": {"s": "TkhXQw=="}, "filter_format": {"s": "SFdJTw=="}, "fused_ops": {"list": {"s": ["Qmlhc0FkZA=="]}}, "num_args": {"i": "1"}, "strides": {"list": {"i": ["1", "2", "2", "1"]}}, "TArgs": {"list": {"type": ["DT_FLOAT"]}}, "padding": {"s": "U0FNRQ=="}, "use_cudnn_on_gpu": {"b": true}, "leakyrelu_alpha": {"f": 0.2}, "epsilon": {"f": 0.0}, "T": {"type": "DT_FLOAT"}, "explicit_paddings": {"list": {}}, "dilations": {"list": {"i": ["1", "1", "1", "1"]}}}}, {"name": "StatefulPartitionedCall/functional_4_1/batch_normalization_10_1/batchnorm/mul_1", "op": "Mul", "input": ["StatefulPartitionedCall/functional_4_1/conv2d_10_1/BiasAdd", "StatefulPartitionedCall/functional_4_1/batch_normalization_10_1/batchnorm/mul"], "attr": {"T": {"type": "DT_FLOAT"}}}, {"name": "StatefulPartitionedCall/functional_4_1/sequential_2_1/batch_normalization_9_1/batchnorm/mul_1", "op": "Mul", "input": ["StatefulPartitionedCall/functional_4_1/sequential_2_1/conv2d_9_1/BiasAdd", "StatefulPartitionedCall/functional_4_1/sequential_2_1/batch_normalization_9_1/batchnorm/mul"], "attr": {"T": {"type": "DT_FLOAT"}}}, {"name": "StatefulPartitionedCall/functional_4_1/batch_normalization_10_1/batchnorm/add_1", "op": "AddV2", "input": ["StatefulPartitionedCall/functional_4_1/batch_normalization_10_1/batchnorm/mul_1", "StatefulPartitionedCall/functional_4_1/batch_normalization_10_1/batchnorm/sub"], "attr": {"T": {"type": "DT_FLOAT"}}}, {"name": "StatefulPartitionedCall/functional_4_1/sequential_2_1/batch_normalization_9_1/batchnorm/add_1", "op": "AddV2", "input": ["StatefulPartitionedCall/functional_4_1/sequential_2_1/batch_normalization_9_1/batchnorm/mul_1", "StatefulPartitionedCall/functional_4_1/sequential_2_1/batch_normalization_9_1/batchnorm/sub"], "attr": {"T": {"type": "DT_FLOAT"}}}, {"name": "StatefulPartitionedCall/functional_4_1/re_lu_7_1/Relu", "op": "Relu", "input": ["StatefulPartitionedCall/functional_4_1/batch_normalization_10_1/batchnorm/add_1"], "attr": {"T": {"type": "DT_FLOAT"}}}, {"name": "StatefulPartitionedCall/functional_4_1/conv2d_11_1/BiasAdd", "op": "_FusedConv2D", "input": ["StatefulPartitionedCall/functional_4_1/re_lu_7_1/Relu", "StatefulPartitionedCall/functional_4_1/conv2d_11_1/convolution/ReadVariableOp", "StatefulPartitionedCall/functional_4_1/conv2d_11_1/Squeeze"], "device": "/device:CPU:0", "attr": {"num_host_args": {"i": "0"}, "data_format": {"s": "TkhXQw=="}, "filter_format": {"s": "SFdJTw=="}, "fused_ops": {"list": {"s": ["Qmlhc0FkZA=="]}}, "num_args": {"i": "1"}, "strides": {"list": {"i": ["1", "2", "2", "1"]}}, "TArgs": {"list": {"type": ["DT_FLOAT"]}}, "padding": {"s": "U0FNRQ=="}, "use_cudnn_on_gpu": {"b": true}, "leakyrelu_alpha": {"f": 0.2}, "epsilon": {"f": 0.0}, "T": {"type": "DT_FLOAT"}, "explicit_paddings": {"list": {}}, "dilations": {"list": {"i": ["1", "1", "1", "1"]}}}}, {"name": "StatefulPartitionedCall/functional_4_1/batch_normalization_11_1/batchnorm/mul_1", "op": "Mul", "input": ["StatefulPartitionedCall/functional_4_1/conv2d_11_1/BiasAdd", "StatefulPartitionedCall/functional_4_1/batch_normalization_11_1/batchnorm/mul"], "attr": {"T": {"type": "DT_FLOAT"}}}, {"name": "StatefulPartitionedCall/functional_4_1/batch_normalization_11_1/batchnorm/add_1", "op": "AddV2", "input": ["StatefulPartitionedCall/functional_4_1/batch_normalization_11_1/batchnorm/mul_1", "StatefulPartitionedCall/functional_4_1/batch_normalization_11_1/batchnorm/sub"], "attr": {"T": {"type": "DT_FLOAT"}}}, {"name": "StatefulPartitionedCall/functional_4_1/re_lu_8_1/Relu", "op": "Relu", "input": ["StatefulPartitionedCall/functional_4_1/batch_normalization_11_1/batchnorm/add_1"], "attr": {"T": {"type": "DT_FLOAT"}}}, {"name": "StatefulPartitionedCall/functional_4_1/conv2d_12_1/BiasAdd", "op": "_FusedConv2D", "input": ["StatefulPartitionedCall/functional_4_1/re_lu_8_1/Relu", "StatefulPartitionedCall/functional_4_1/conv2d_12_1/convolution/ReadVariableOp", "StatefulPartitionedCall/functional_4_1/conv2d_12_1/Squeeze"], "device": "/device:CPU:0", "attr": {"num_host_args": {"i": "0"}, "data_format": {"s": "TkhXQw=="}, "filter_format": {"s": "SFdJTw=="}, "strides": {"list": {"i": ["1", "1", "1", "1"]}}, "num_args": {"i": "1"}, "fused_ops": {"list": {"s": ["Qmlhc0FkZA=="]}}, "TArgs": {"list": {"type": ["DT_FLOAT"]}}, "padding": {"s": "U0FNRQ=="}, "use_cudnn_on_gpu": {"b": true}, "leakyrelu_alpha": {"f": 0.2}, "epsilon": {"f": 0.0}, "T": {"type": "DT_FLOAT"}, "explicit_paddings": {"list": {}}, "dilations": {"list": {"i": ["1", "1", "1", "1"]}}}}, {"name": "StatefulPartitionedCall/functional_4_1/batch_normalization_12_1/batchnorm/mul_1", "op": "Mul", "input": ["StatefulPartitionedCall/functional_4_1/conv2d_12_1/BiasAdd", "StatefulPartitionedCall/functional_4_1/batch_normalization_12_1/batchnorm/mul"], "attr": {"T": {"type": "DT_FLOAT"}}}, {"name": "StatefulPartitionedCall/functional_4_1/batch_normalization_12_1/batchnorm/add_1", "op": "AddV2", "input": ["StatefulPartitionedCall/functional_4_1/batch_normalization_12_1/batchnorm/mul_1", "StatefulPartitionedCall/functional_4_1/batch_normalization_12_1/batchnorm/sub"], "attr": {"T": {"type": "DT_FLOAT"}}}, {"name": "StatefulPartitionedCall/functional_4_1/add_2_1/Add", "op": "AddV2", "input": ["StatefulPartitionedCall/functional_4_1/batch_normalization_12_1/batchnorm/add_1", "StatefulPartitionedCall/functional_4_1/sequential_2_1/batch_normalization_9_1/batchnorm/add_1"], "attr": {"T": {"type": "DT_FLOAT"}}}, {"name": "StatefulPartitionedCall/functional_4_1/re_lu_9_1/Relu", "op": "Relu", "input": ["StatefulPartitionedCall/functional_4_1/add_2_1/Add"], "attr": {"T": {"type": "DT_FLOAT"}}}, {"name": "StatefulPartitionedCall/functional_4_1/conv2d_13_1/BiasAdd", "op": "_FusedConv2D", "input": ["StatefulPartitionedCall/functional_4_1/re_lu_9_1/Relu", "StatefulPartitionedCall/functional_4_1/conv2d_13_1/convolution/ReadVariableOp", "StatefulPartitionedCall/functional_4_1/conv2d_13_1/Squeeze"], "device": "/device:CPU:0", "attr": {"num_host_args": {"i": "0"}, "data_format": {"s": "TkhXQw=="}, "filter_format": {"s": "SFdJTw=="}, "fused_ops": {"list": {"s": ["Qmlhc0FkZA=="]}}, "num_args": {"i": "1"}, "strides": {"list": {"i": ["1", "1", "1", "1"]}}, "TArgs": {"list": {"type": ["DT_FLOAT"]}}, "padding": {"s": "U0FNRQ=="}, "use_cudnn_on_gpu": {"b": true}, "leakyrelu_alpha": {"f": 0.2}, "epsilon": {"f": 0.0}, "T": {"type": "DT_FLOAT"}, "explicit_paddings": {"list": {}}, "dilations": {"list": {"i": ["1", "1", "1", "1"]}}}}, {"name": "StatefulPartitionedCall/functional_4_1/batch_normalization_13_1/batchnorm/mul_1", "op": "Mul", "input": ["StatefulPartitionedCall/functional_4_1/conv2d_13_1/BiasAdd", "StatefulPartitionedCall/functional_4_1/batch_normalization_13_1/batchnorm/mul"], "attr": {"T": {"type": "DT_FLOAT"}}}, {"name": "StatefulPartitionedCall/functional_4_1/batch_normalization_13_1/batchnorm/add_1", "op": "AddV2", "input": ["StatefulPartitionedCall/functional_4_1/batch_normalization_13_1/batchnorm/mul_1", "StatefulPartitionedCall/functional_4_1/batch_normalization_13_1/batchnorm/sub"], "attr": {"T": {"type": "DT_FLOAT"}}}, {"name": "StatefulPartitionedCall/functional_4_1/re_lu_10_1/Relu", "op": "Relu", "input": ["StatefulPartitionedCall/functional_4_1/batch_normalization_13_1/batchnorm/add_1"], "attr": {"T": {"type": "DT_FLOAT"}}}, {"name": "StatefulPartitionedCall/functional_4_1/conv2d_14_1/BiasAdd", "op": "_FusedConv2D", "input": ["StatefulPartitionedCall/functional_4_1/re_lu_10_1/Relu", "StatefulPartitionedCall/functional_4_1/conv2d_14_1/convolution/ReadVariableOp", "StatefulPartitionedCall/functional_4_1/conv2d_14_1/Squeeze"], "device": "/device:CPU:0", "attr": {"num_host_args": {"i": "0"}, "data_format": {"s": "TkhXQw=="}, "filter_format": {"s": "SFdJTw=="}, "fused_ops": {"list": {"s": ["Qmlhc0FkZA=="]}}, "num_args": {"i": "1"}, "strides": {"list": {"i": ["1", "1", "1", "1"]}}, "TArgs": {"list": {"type": ["DT_FLOAT"]}}, "padding": {"s": "U0FNRQ=="}, "use_cudnn_on_gpu": {"b": true}, "leakyrelu_alpha": {"f": 0.2}, "epsilon": {"f": 0.0}, "T": {"type": "DT_FLOAT"}, "explicit_paddings": {"list": {}}, "dilations": {"list": {"i": ["1", "1", "1", "1"]}}}}, {"name": "StatefulPartitionedCall/functional_4_1/batch_normalization_14_1/batchnorm/mul_1", "op": "Mul", "input": ["StatefulPartitionedCall/functional_4_1/conv2d_14_1/BiasAdd", "StatefulPartitionedCall/functional_4_1/batch_normalization_14_1/batchnorm/mul"], "attr": {"T": {"type": "DT_FLOAT"}}}, {"name": "StatefulPartitionedCall/functional_4_1/batch_normalization_14_1/batchnorm/add_1", "op": "AddV2", "input": ["StatefulPartitionedCall/functional_4_1/batch_normalization_14_1/batchnorm/mul_1", "StatefulPartitionedCall/functional_4_1/batch_normalization_14_1/batchnorm/sub"], "attr": {"T": {"type": "DT_FLOAT"}}}, {"name": "StatefulPartitionedCall/functional_4_1/re_lu_11_1/Relu", "op": "Relu", "input": ["StatefulPartitionedCall/functional_4_1/batch_normalization_14_1/batchnorm/add_1"], "attr": {"T": {"type": "DT_FLOAT"}}}, {"name": "StatefulPartitionedCall/functional_4_1/conv2d_15_1/BiasAdd", "op": "_FusedConv2D", "input": ["StatefulPartitionedCall/functional_4_1/re_lu_11_1/Relu", "StatefulPartitionedCall/functional_4_1/conv2d_15_1/convolution/ReadVariableOp", "StatefulPartitionedCall/functional_4_1/conv2d_15_1/Squeeze"], "device": "/device:CPU:0", "attr": {"num_host_args": {"i": "0"}, "data_format": {"s": "TkhXQw=="}, "filter_format": {"s": "SFdJTw=="}, "strides": {"list": {"i": ["1", "1", "1", "1"]}}, "num_args": {"i": "1"}, "fused_ops": {"list": {"s": ["Qmlhc0FkZA=="]}}, "TArgs": {"list": {"type": ["DT_FLOAT"]}}, "padding": {"s": "U0FNRQ=="}, "use_cudnn_on_gpu": {"b": true}, "leakyrelu_alpha": {"f": 0.2}, "epsilon": {"f": 0.0}, "T": {"type": "DT_FLOAT"}, "explicit_paddings": {"list": {}}, "dilations": {"list": {"i": ["1", "1", "1", "1"]}}}}, {"name": "StatefulPartitionedCall/functional_4_1/batch_normalization_15_1/batchnorm/mul_1", "op": "Mul", "input": ["StatefulPartitionedCall/functional_4_1/conv2d_15_1/BiasAdd", "StatefulPartitionedCall/functional_4_1/batch_normalization_15_1/batchnorm/mul"], "attr": {"T": {"type": "DT_FLOAT"}}}, {"name": "StatefulPartitionedCall/functional_4_1/add_3_1/ArithmeticOptimizer/AddOpsRewrite_Leaf_1_Add", "op": "AddN", "input": ["StatefulPartitionedCall/functional_4_1/batch_normalization_15_1/batchnorm/mul_1", "StatefulPartitionedCall/functional_4_1/re_lu_9_1/Relu"], "attr": {"N": {"i": "2"}, "T": {"type": "DT_FLOAT"}, "_grappler_ArithmeticOptimizer_AddOpsRewriteStage": {"b": true}}}, {"name": "StatefulPartitionedCall/functional_4_1/add_3_1/ArithmeticOptimizer/AddOpsRewrite_Add", "op": "AddV2", "input": ["StatefulPartitionedCall/functional_4_1/batch_normalization_15_1/batchnorm/sub", "StatefulPartitionedCall/functional_4_1/add_3_1/ArithmeticOptimizer/AddOpsRewrite_Leaf_1_Add"], "attr": {"T": {"type": "DT_FLOAT"}, "_grappler_ArithmeticOptimizer_AddOpsRewriteStage": {"b": true}}}, {"name": "StatefulPartitionedCall/functional_4_1/re_lu_12_1/Relu", "op": "Relu", "input": ["StatefulPartitionedCall/functional_4_1/add_3_1/ArithmeticOptimizer/AddOpsRewrite_Add"], "attr": {"T": {"type": "DT_FLOAT"}}}, {"name": "StatefulPartitionedCall/functional_4_1/sequential_3_1/conv2d_16_1/BiasAdd", "op": "_FusedConv2D", "input": ["StatefulPartitionedCall/functional_4_1/re_lu_12_1/Relu", "StatefulPartitionedCall/functional_4_1/sequential_3_1/conv2d_16_1/convolution/ReadVariableOp", "StatefulPartitionedCall/functional_4_1/sequential_3_1/conv2d_16_1/Squeeze"], "device": "/device:CPU:0", "attr": {"num_host_args": {"i": "0"}, "data_format": {"s": "TkhXQw=="}, "filter_format": {"s": "SFdJTw=="}, "strides": {"list": {"i": ["1", "2", "2", "1"]}}, "num_args": {"i": "1"}, "fused_ops": {"list": {"s": ["Qmlhc0FkZA=="]}}, "TArgs": {"list": {"type": ["DT_FLOAT"]}}, "padding": {"s": "U0FNRQ=="}, "use_cudnn_on_gpu": {"b": true}, "leakyrelu_alpha": {"f": 0.2}, "epsilon": {"f": 0.0}, "T": {"type": "DT_FLOAT"}, "explicit_paddings": {"list": {}}, "dilations": {"list": {"i": ["1", "1", "1", "1"]}}}}, {"name": "StatefulPartitionedCall/functional_4_1/conv2d_17_1/BiasAdd", "op": "_FusedConv2D", "input": ["StatefulPartitionedCall/functional_4_1/re_lu_12_1/Relu", "StatefulPartitionedCall/functional_4_1/conv2d_17_1/convolution/ReadVariableOp", "StatefulPartitionedCall/functional_4_1/conv2d_17_1/Squeeze"], "device": "/device:CPU:0", "attr": {"num_host_args": {"i": "0"}, "data_format": {"s": "TkhXQw=="}, "filter_format": {"s": "SFdJTw=="}, "fused_ops": {"list": {"s": ["Qmlhc0FkZA=="]}}, "num_args": {"i": "1"}, "strides": {"list": {"i": ["1", "1", "1", "1"]}}, "TArgs": {"list": {"type": ["DT_FLOAT"]}}, "padding": {"s": "U0FNRQ=="}, "use_cudnn_on_gpu": {"b": true}, "leakyrelu_alpha": {"f": 0.2}, "epsilon": {"f": 0.0}, "T": {"type": "DT_FLOAT"}, "explicit_paddings": {"list": {}}, "dilations": {"list": {"i": ["1", "1", "1", "1"]}}}}, {"name": "StatefulPartitionedCall/functional_4_1/sequential_3_1/batch_normalization_16_1/batchnorm/mul_1", "op": "Mul", "input": ["StatefulPartitionedCall/functional_4_1/sequential_3_1/conv2d_16_1/BiasAdd", "StatefulPartitionedCall/functional_4_1/sequential_3_1/batch_normalization_16_1/batchnorm/mul"], "attr": {"T": {"type": "DT_FLOAT"}}}, {"name": "StatefulPartitionedCall/functional_4_1/batch_normalization_17_1/batchnorm/mul_1", "op": "Mul", "input": ["StatefulPartitionedCall/functional_4_1/conv2d_17_1/BiasAdd", "StatefulPartitionedCall/functional_4_1/batch_normalization_17_1/batchnorm/mul"], "attr": {"T": {"type": "DT_FLOAT"}}}, {"name": "StatefulPartitionedCall/functional_4_1/sequential_3_1/batch_normalization_16_1/batchnorm/add_1", "op": "AddV2", "input": ["StatefulPartitionedCall/functional_4_1/sequential_3_1/batch_normalization_16_1/batchnorm/mul_1", "StatefulPartitionedCall/functional_4_1/sequential_3_1/batch_normalization_16_1/batchnorm/sub"], "attr": {"T": {"type": "DT_FLOAT"}}}, {"name": "StatefulPartitionedCall/functional_4_1/batch_normalization_17_1/batchnorm/add_1", "op": "AddV2", "input": ["StatefulPartitionedCall/functional_4_1/batch_normalization_17_1/batchnorm/mul_1", "StatefulPartitionedCall/functional_4_1/batch_normalization_17_1/batchnorm/sub"], "attr": {"T": {"type": "DT_FLOAT"}}}, {"name": "StatefulPartitionedCall/functional_4_1/re_lu_13_1/Relu", "op": "Relu", "input": ["StatefulPartitionedCall/functional_4_1/batch_normalization_17_1/batchnorm/add_1"], "attr": {"T": {"type": "DT_FLOAT"}}}, {"name": "StatefulPartitionedCall/functional_4_1/conv2d_18_1/BiasAdd", "op": "_FusedConv2D", "input": ["StatefulPartitionedCall/functional_4_1/re_lu_13_1/Relu", "StatefulPartitionedCall/functional_4_1/conv2d_18_1/convolution/ReadVariableOp", "StatefulPartitionedCall/functional_4_1/conv2d_18_1/Squeeze"], "device": "/device:CPU:0", "attr": {"num_host_args": {"i": "0"}, "data_format": {"s": "TkhXQw=="}, "filter_format": {"s": "SFdJTw=="}, "fused_ops": {"list": {"s": ["Qmlhc0FkZA=="]}}, "num_args": {"i": "1"}, "strides": {"list": {"i": ["1", "2", "2", "1"]}}, "TArgs": {"list": {"type": ["DT_FLOAT"]}}, "padding": {"s": "U0FNRQ=="}, "use_cudnn_on_gpu": {"b": true}, "leakyrelu_alpha": {"f": 0.2}, "epsilon": {"f": 0.0}, "T": {"type": "DT_FLOAT"}, "explicit_paddings": {"list": {}}, "dilations": {"list": {"i": ["1", "1", "1", "1"]}}}}, {"name": "StatefulPartitionedCall/functional_4_1/batch_normalization_18_1/batchnorm/mul_1", "op": "Mul", "input": ["StatefulPartitionedCall/functional_4_1/conv2d_18_1/BiasAdd", "StatefulPartitionedCall/functional_4_1/batch_normalization_18_1/batchnorm/mul"], "attr": {"T": {"type": "DT_FLOAT"}}}, {"name": "StatefulPartitionedCall/functional_4_1/batch_normalization_18_1/batchnorm/add_1", "op": "AddV2", "input": ["StatefulPartitionedCall/functional_4_1/batch_normalization_18_1/batchnorm/mul_1", "StatefulPartitionedCall/functional_4_1/batch_normalization_18_1/batchnorm/sub"], "attr": {"T": {"type": "DT_FLOAT"}}}, {"name": "StatefulPartitionedCall/functional_4_1/re_lu_14_1/Relu", "op": "Relu", "input": ["StatefulPartitionedCall/functional_4_1/batch_normalization_18_1/batchnorm/add_1"], "attr": {"T": {"type": "DT_FLOAT"}}}, {"name": "StatefulPartitionedCall/functional_4_1/conv2d_19_1/BiasAdd", "op": "_FusedConv2D", "input": ["StatefulPartitionedCall/functional_4_1/re_lu_14_1/Relu", "StatefulPartitionedCall/functional_4_1/conv2d_19_1/convolution/ReadVariableOp", "StatefulPartitionedCall/functional_4_1/conv2d_19_1/Squeeze"], "device": "/device:CPU:0", "attr": {"num_host_args": {"i": "0"}, "data_format": {"s": "TkhXQw=="}, "filter_format": {"s": "SFdJTw=="}, "strides": {"list": {"i": ["1", "1", "1", "1"]}}, "num_args": {"i": "1"}, "fused_ops": {"list": {"s": ["Qmlhc0FkZA=="]}}, "TArgs": {"list": {"type": ["DT_FLOAT"]}}, "padding": {"s": "U0FNRQ=="}, "use_cudnn_on_gpu": {"b": true}, "leakyrelu_alpha": {"f": 0.2}, "epsilon": {"f": 0.0}, "T": {"type": "DT_FLOAT"}, "explicit_paddings": {"list": {}}, "dilations": {"list": {"i": ["1", "1", "1", "1"]}}}}, {"name": "StatefulPartitionedCall/functional_4_1/batch_normalization_19_1/batchnorm/mul_1", "op": "Mul", "input": ["StatefulPartitionedCall/functional_4_1/conv2d_19_1/BiasAdd", "StatefulPartitionedCall/functional_4_1/batch_normalization_19_1/batchnorm/mul"], "attr": {"T": {"type": "DT_FLOAT"}}}, {"name": "StatefulPartitionedCall/functional_4_1/batch_normalization_19_1/batchnorm/add_1", "op": "AddV2", "input": ["StatefulPartitionedCall/functional_4_1/batch_normalization_19_1/batchnorm/mul_1", "StatefulPartitionedCall/functional_4_1/batch_normalization_19_1/batchnorm/sub"], "attr": {"T": {"type": "DT_FLOAT"}}}, {"name": "StatefulPartitionedCall/functional_4_1/add_4_1/Add", "op": "AddV2", "input": ["StatefulPartitionedCall/functional_4_1/batch_normalization_19_1/batchnorm/add_1", "StatefulPartitionedCall/functional_4_1/sequential_3_1/batch_normalization_16_1/batchnorm/add_1"], "attr": {"T": {"type": "DT_FLOAT"}}}, {"name": "StatefulPartitionedCall/functional_4_1/re_lu_15_1/Relu", "op": "Relu", "input": ["StatefulPartitionedCall/functional_4_1/add_4_1/Add"], "attr": {"T": {"type": "DT_FLOAT"}}}, {"name": "StatefulPartitionedCall/functional_4_1/global_average_pooling2d_1/Mean", "op": "Mean", "input": ["StatefulPartitionedCall/functional_4_1/re_lu_15_1/Relu", "StatefulPartitionedCall/functional_4_1/global_average_pooling2d_1/Mean/reduction_indices"], "attr": {"T": {"type": "DT_FLOAT"}, "Tidx": {"type": "DT_INT32"}, "keep_dims": {"b": false}}}, {"name": "StatefulPartitionedCall/functional_4_1/dense_1/BiasAdd", "op": "_FusedMatMul", "input": ["StatefulPartitionedCall/functional_4_1/global_average_pooling2d_1/Mean", "StatefulPartitionedCall/functional_4_1/dense_1/Cast/ReadVariableOp", "StatefulPartitionedCall/functional_4_1/dense_1/BiasAdd/ReadVariableOp"], "device": "/device:CPU:0", "attr": {"transpose_a": {"b": false}, "transpose_b": {"b": false}, "fused_ops": {"list": {"s": ["Qmlhc0FkZA=="]}}, "num_args": {"i": "1"}, "leakyrelu_alpha": {"f": 0.2}, "epsilon": {"f": 0.0}, "T": {"type": "DT_FLOAT"}}}, {"name": "StatefulPartitionedCall/functional_4_1/dense_1/Softmax", "op": "Softmax", "input": ["StatefulPartitionedCall/functional_4_1/dense_1/BiasAdd"], "attr": {"T": {"type": "DT_FLOAT"}}}, {"name": "Identity", "op": "Identity", "input": ["StatefulPartitionedCall/functional_4_1/dense_1/Softmax"], "attr": {"T": {"type": "DT_FLOAT"}}}], "library": {}, "versions": {"producer": 2129}}, "weightsManifest": [{"paths": ["group1-shard1of9.bin", "group1-shard2of9.bin", "group1-shard3of9.bin", "group1-shard4of9.bin", "group1-shard5of9.bin", "group1-shard6of9.bin", "group1-shard7of9.bin", "group1-shard8of9.bin", "group1-shard9of9.bin"], "weights": [{"name": "StatefulPartitionedCall/functional_4_1/conv2d_17_1/convolution/ReadVariableOp", "shape": [1, 1, 1024, 512], "dtype": "float32"}, {"name": "StatefulPartitionedCall/functional_4_1/conv2d_17_1/Squeeze", "shape": [512], "dtype": "float32"}, {"name": "StatefulPartitionedCall/functional_4_1/batch_normalization_17_1/batchnorm/mul", "shape": [512], "dtype": "float32"}, {"name": "StatefulPartitionedCall/functional_4_1/batch_normalization_17_1/batchnorm/sub", "shape": [512], "dtype": "float32"}, {"name": "StatefulPartitionedCall/functional_4_1/conv2d_18_1/convolution/ReadVariableOp", "shape": [3, 3, 512, 512], "dtype": "float32"}, {"name": "StatefulPartitionedCall/functional_4_1/conv2d_18_1/Squeeze", "shape": [512], "dtype": "float32"}, {"name": "StatefulPartitionedCall/functional_4_1/batch_normalization_18_1/batchnorm/mul", "shape": [512], "dtype": "float32"}, {"name": "StatefulPartitionedCall/functional_4_1/batch_normalization_18_1/batchnorm/sub", "shape": [512], "dtype": "float32"}, {"name": "StatefulPartitionedCall/functional_4_1/conv2d_19_1/convolution/ReadVariableOp", "shape": [1, 1, 512, 2048], "dtype": "float32"}, {"name": "StatefulPartitionedCall/functional_4_1/conv2d_19_1/Squeeze", "shape": [2048], "dtype": "float32"}, {"name": "StatefulPartitionedCall/functional_4_1/batch_normalization_19_1/batchnorm/mul", "shape": [2048], "dtype": "float32"}, {"name": "StatefulPartitionedCall/functional_4_1/batch_normalization_19_1/batchnorm/sub", "shape": [2048], "dtype": "float32"}, {"name": "StatefulPartitionedCall/functional_4_1/batch_normalization_15_1/batchnorm/sub", "shape": [1024], "dtype": "float32"}, {"name": "StatefulPartitionedCall/functional_4_1/conv2d_13_1/convolution/ReadVariableOp", "shape": [1, 1, 1024, 256], "dtype": "float32"}, {"name": "StatefulPartitionedCall/functional_4_1/conv2d_13_1/Squeeze", "shape": [256], "dtype": "float32"}, {"name": "StatefulPartitionedCall/functional_4_1/batch_normalization_13_1/batchnorm/mul", "shape": [256], "dtype": "float32"}, {"name": "StatefulPartitionedCall/functional_4_1/batch_normalization_13_1/batchnorm/sub", "shape": [256], "dtype": "float32"}, {"name": "StatefulPartitionedCall/functional_4_1/conv2d_14_1/convolution/ReadVariableOp", "shape": [3, 3, 256, 256], "dtype": "float32"}, {"name": "StatefulPartitionedCall/functional_4_1/conv2d_14_1/Squeeze", "shape": [256], "dtype": "float32"}, {"name": "StatefulPartitionedCall/functional_4_1/batch_normalization_14_1/batchnorm/mul", "shape": [256], "dtype": "float32"}, {"name": "StatefulPartitionedCall/functional_4_1/batch_normalization_14_1/batchnorm/sub", "shape": [256], "dtype": "float32"}, {"name": "StatefulPartitionedCall/functional_4_1/conv2d_15_1/convolution/ReadVariableOp", "shape": [1, 1, 256, 1024], "dtype": "float32"}, {"name": "StatefulPartitionedCall/functional_4_1/conv2d_15_1/Squeeze", "shape": [1024], "dtype": "float32"}, {"name": "StatefulPartitionedCall/functional_4_1/batch_normalization_15_1/batchnorm/mul", "shape": [1024], "dtype": "float32"}, {"name": "StatefulPartitionedCall/functional_4_1/conv2d_10_1/convolution/ReadVariableOp", "shape": [1, 1, 512, 256], "dtype": "float32"}, {"name": "StatefulPartitionedCall/functional_4_1/conv2d_10_1/Squeeze", "shape": [256], "dtype": "float32"}, {"name": "StatefulPartitionedCall/functional_4_1/batch_normalization_10_1/batchnorm/mul", "shape": [256], "dtype": "float32"}, {"name": "StatefulPartitionedCall/functional_4_1/batch_normalization_10_1/batchnorm/sub", "shape": [256], "dtype": "float32"}, {"name": "StatefulPartitionedCall/functional_4_1/conv2d_11_1/convolution/ReadVariableOp", "shape": [3, 3, 256, 256], "dtype": "float32"}, {"name": "StatefulPartitionedCall/functional_4_1/conv2d_11_1/Squeeze", "shape": [256], "dtype": "float32"}, {"name": "StatefulPartitionedCall/functional_4_1/batch_normalization_11_1/batchnorm/mul", "shape": [256], "dtype": "float32"}, {"name": "StatefulPartitionedCall/functional_4_1/batch_normalization_11_1/batchnorm/sub", "shape": [256], "dtype": "float32"}, {"name": "StatefulPartitionedCall/functional_4_1/conv2d_12_1/convolution/ReadVariableOp", "shape": [1, 1, 256, 1024], "dtype": "float32"}, {"name": "StatefulPartitionedCall/functional_4_1/conv2d_12_1/Squeeze", "shape": [1024], "dtype": "float32"}, {"name": "StatefulPartitionedCall/functional_4_1/batch_normalization_12_1/batchnorm/mul", "shape": [1024], "dtype": "float32"}, {"name": "StatefulPartitionedCall/functional_4_1/batch_normalization_12_1/batchnorm/sub", "shape": [1024], "dtype": "float32"}, {"name": "StatefulPartitionedCall/functional_4_1/conv2d_6_1/convolution/ReadVariableOp", "shape": [1, 1, 256, 128], "dtype": "float32"}, {"name": "StatefulPartitionedCall/functional_4_1/conv2d_6_1/Squeeze", "shape": [128], "dtype": "float32"}, {"name": "StatefulPartitionedCall/functional_4_1/batch_normalization_6_1/batchnorm/mul", "shape": [128], "dtype": "float32"}, {"name": "StatefulPartitionedCall/functional_4_1/batch_normalization_6_1/batchnorm/sub", "shape": [128], "dtype": "float32"}, {"name": "StatefulPartitionedCall/functional_4_1/conv2d_7_1/convolution/ReadVariableOp", "shape": [3, 3, 128, 128], "dtype": "float32"}, {"name": "StatefulPartitionedCall/functional_4_1/conv2d_7_1/Squeeze", "shape": [128], "dtype": "float32"}, {"name": "StatefulPartitionedCall/functional_4_1/batch_normalization_7_1/batchnorm/mul", "shape": [128], "dtype": "float32"}, {"name": "StatefulPartitionedCall/functional_4_1/batch_normalization_7_1/batchnorm/sub", "shape": [128], "dtype": "float32"}, {"name": "StatefulPartitionedCall/functional_4_1/conv2d_8_1/convolution/ReadVariableOp", "shape": [1, 1, 128, 512], "dtype": "float32"}, {"name": "StatefulPartitionedCall/functional_4_1/conv2d_8_1/Squeeze", "shape": [512], "dtype": "float32"}, {"name": "StatefulPartitionedCall/functional_4_1/batch_normalization_8_1/batchnorm/mul", "shape": [512], "dtype": "float32"}, {"name": "StatefulPartitionedCall/functional_4_1/batch_normalization_8_1/batchnorm/sub", "shape": [512], "dtype": "float32"}, {"name": "StatefulPartitionedCall/functional_4_1/add_1/ArithmeticOptimizer/AddOpsRewrite_Leaf_0_Add", "shape": [256], "dtype": "float32"}, {"name": "StatefulPartitionedCall/functional_4_1/conv2d_2_1/convolution/ReadVariableOp", "shape": [1, 1, 64, 64], "dtype": "float32"}, {"name": "StatefulPartitionedCall/functional_4_1/conv2d_2_1/Squeeze", "shape": [64], "dtype": "float32"}, {"name": "StatefulPartitionedCall/functional_4_1/batch_normalization_2_1/batchnorm/mul", "shape": [64], "dtype": "float32"}, {"name": "StatefulPartitionedCall/functional_4_1/batch_normalization_2_1/batchnorm/sub", "shape": [64], "dtype": "float32"}, {"name": "StatefulPartitionedCall/functional_4_1/conv2d_3_1/convolution/ReadVariableOp", "shape": [3, 3, 64, 64], "dtype": "float32"}, {"name": "StatefulPartitionedCall/functional_4_1/conv2d_3_1/Squeeze", "shape": [64], "dtype": "float32"}, {"name": "StatefulPartitionedCall/functional_4_1/batch_normalization_3_1/batchnorm/mul", "shape": [64], "dtype": "float32"}, {"name": "StatefulPartitionedCall/functional_4_1/batch_normalization_3_1/batchnorm/sub", "shape": [64], "dtype": "float32"}, {"name": "StatefulPartitionedCall/functional_4_1/conv2d_4_1/convolution/ReadVariableOp", "shape": [1, 1, 64, 256], "dtype": "float32"}, {"name": "StatefulPartitionedCall/functional_4_1/conv2d_4_1/Squeeze", "shape": [256], "dtype": "float32"}, {"name": "StatefulPartitionedCall/functional_4_1/batch_normalization_4_1/batchnorm/mul", "shape": [256], "dtype": "float32"}, {"name": "StatefulPartitionedCall/functional_4_1/conv2d_1/convolution/ReadVariableOp", "shape": [7, 7, 3, 64], "dtype": "float32"}, {"name": "StatefulPartitionedCall/functional_4_1/conv2d_1/Squeeze", "shape": [64], "dtype": "float32"}, {"name": "StatefulPartitionedCall/functional_4_1/batch_normalization_1/batchnorm/mul", "shape": [64], "dtype": "float32"}, {"name": "StatefulPartitionedCall/functional_4_1/batch_normalization_1/batchnorm/sub", "shape": [64], "dtype": "float32"}, {"name": "StatefulPartitionedCall/functional_4_1/sequential_1/conv2d_1_1/convolution/ReadVariableOp", "shape": [1, 1, 64, 256], "dtype": "float32"}, {"name": "StatefulPartitionedCall/functional_4_1/sequential_1/conv2d_1_1/Squeeze", "shape": [256], "dtype": "float32"}, {"name": "StatefulPartitionedCall/functional_4_1/sequential_1/batch_normalization_1_1/batchnorm/mul", "shape": [256], "dtype": "float32"}, {"name": "StatefulPartitionedCall/functional_4_1/sequential_1_2/conv2d_5_1/convolution/ReadVariableOp", "shape": [1, 1, 256, 512], "dtype": "float32"}, {"name": "StatefulPartitionedCall/functional_4_1/sequential_1_2/conv2d_5_1/Squeeze", "shape": [512], "dtype": "float32"}, {"name": "StatefulPartitionedCall/functional_4_1/sequential_1_2/batch_normalization_5_1/batchnorm/mul", "shape": [512], "dtype": "float32"}, {"name": "StatefulPartitionedCall/functional_4_1/sequential_1_2/batch_normalization_5_1/batchnorm/sub", "shape": [512], "dtype": "float32"}, {"name": "StatefulPartitionedCall/functional_4_1/sequential_2_1/conv2d_9_1/convolution/ReadVariableOp", "shape": [1, 1, 512, 1024], "dtype": "float32"}, {"name": "StatefulPartitionedCall/functional_4_1/sequential_2_1/conv2d_9_1/Squeeze", "shape": [1024], "dtype": "float32"}, {"name": "StatefulPartitionedCall/functional_4_1/sequential_2_1/batch_normalization_9_1/batchnorm/mul", "shape": [1024], "dtype": "float32"}, {"name": "StatefulPartitionedCall/functional_4_1/sequential_2_1/batch_normalization_9_1/batchnorm/sub", "shape": [1024], "dtype": "float32"}, {"name": "StatefulPartitionedCall/functional_4_1/sequential_3_1/conv2d_16_1/convolution/ReadVariableOp", "shape": [1, 1, 1024, 2048], "dtype": "float32"}, {"name": "StatefulPartitionedCall/functional_4_1/sequential_3_1/conv2d_16_1/Squeeze", "shape": [2048], "dtype": "float32"}, {"name": "StatefulPartitionedCall/functional_4_1/sequential_3_1/batch_normalization_16_1/batchnorm/mul", "shape": [2048], "dtype": "float32"}, {"name": "StatefulPartitionedCall/functional_4_1/sequential_3_1/batch_normalization_16_1/batchnorm/sub", "shape": [2048], "dtype": "float32"}, {"name": "StatefulPartitionedCall/functional_4_1/global_average_pooling2d_1/Mean/reduction_indices", "shape": [2], "dtype": "int32"}, {"name": "StatefulPartitionedCall/functional_4_1/dense_1/Cast/ReadVariableOp", "shape": [2048, 2], "dtype": "float32"}, {"name": "StatefulPartitionedCall/functional_4_1/dense_1/BiasAdd/ReadVariableOp", "shape": [2], "dtype": "float32"}]}]}